model/model.pth (torch, 7752 bytes, 8 tensors)

network.0.weight f4 [16, 30]
0	0x3dbee30d	0.0932065
1	0x3d347099	0.044052694
2	0x3dcf6265	0.10126189
3	0x3dfcd268	0.12344819
4	0x3e1d2560	0.15346289
5	0x3c5db412	0.013531702
6	0xbe393909	-0.18088163
7	0xbdb4f961	-0.08836628
8	0x3da9f9a6	0.0829957
9	0x3ccabdd2	0.024748717
10	0x3d60fda6	0.054929398
11	0x3ccd14cc	0.02503433
12	0x3db6ca06	0.08925252
13	0xbd4731ee	-0.0486316
14	0xbaaca4e2	-0.0013171698
15	0xbda7e987	-0.08198839
16	0xbd4e16b2	-0.050314613
17	0xbdf2d061	-0.11856151
18	0x3ddc9bbc	0.107718915
19	0xbce18d06	-0.027533066
20	0x3dd0dae5	0.10198001
21	0x3e091890	0.13388276
22	0xbdd72106	-0.105043456
23	0xbe3d9b66	-0.18516311
24	0xbe01e277	-0.12684046
25	0x3e02bc1e	0.12767074
26	0xbda5f130	-0.081026435
27	0xbe45d522	-0.19319585
28	0xbe5515a6	-0.2080904
29	0x3dcae597	0.09907072
30	0xbd62fa23	-0.05541433
31	0xbd55ed2c	-0.052228138
32	0x3e02ad23	0.12761359
33	0xbde1604a	-0.11004694
34	0x3dfe01dc	0.124026984
35	0x3e0fbfd3	0.14038019
36	0x3df64c1b	0.12026235
37	0xbd45d103	-0.048295032
38	0xbb88ce7d	-0.004175006
39	0x3e5ed453	0.21760683
40	0xbd51966a	-0.051168837
41	0x3e619ab1	0.22031666
42	0x3e78fce7	0.24315225
43	0x3de0064e	0.109387025
44	0x3e385c2c	0.18003911
45	0x3e5c8ccd	0.21538086
46	0x3e7f8df7	0.24956499
47	0x3dfdc80b	0.12391671
48	0x3e0903b5	0.1338032
49	0x3e659f06	0.22423944
50	0x3e2df83e	0.16989228
51	0x3dd3df0b	0.103452764
52	0x3e45ad55	0.19304402
53	0x3c534b35	0.012896349
54	0x3e454c0d	0.19267292
55	0x3d349ff7	0.044097867
56	0x3e907232	0.28212124
57	0x3e331a99	0.17490615
58	0xbd5cbfe7	-0.05389395
59	0x3da22779	0.07917685
60	0x3dcaefcf	0.09909021
61	0x3e0bc8ba	0.1365079
62	0xbd150e78	-0.03639075
63	0x3d86c719	0.065809436
64	0x3e81f46a	0.25381786
65	0xbd065821	-0.03279889
66	0x3d8f4a0f	0.069965474
67	0xbc2b4290	-0.010452881
68	0x3dd263bf	0.10272931
69	0x3d9e849c	0.07740137
70	0xbd1be9f1	-0.0380649
71	0xbd868991	-0.065692075
72	0x3e26c980	0.16287804
73	0x3d559555	0.052144367
74	0xbda95484	-0.08268073
75	0x3d872e0b	0.06600579
76	0x3d281b97	0.041041937
77	0xbe24b3b3	-0.16084175
78	0x3d680d57	0.056653347
79	0xbe4a24a7	-0.19740544
80	0x3df757be	0.12077282
81	0xbd29e6ed	-0.041479994
82	0x3e2f5766	0.17123184
83	0x3df3ab5f	0.11897921
84	0x3e2718c2	0.16318038
85	0x3d64ffbb	0.055907946
86	0x3d84d943	0.06486752
87	0x3df99fc9	0.1218868
88	0x3e843968	0.25825047
89	0x3ddb6a61	0.107136495
90	0x3e1ecfa4	0.15508896
91	0x3e93e3d8	0.28884768
92	0x3d7e9d9a	0.06216202
93	0x3e3d7319	0.18500938
94	0x3d99f58a	0.07517536
95	0xbe17ed8a	-0.14836708
96	0x3e0af866	0.13571319
97	0x3d84cfef	0.06484973
98	0xbd23e04f	-0.04000884
99	0x3d981438	0.074257314
100	0x3e830ffe	0.2559814
101	0xbcd5a1c1	-0.026078107
102	0x3db61cf0	0.08892238
103	0xbdc82a93	-0.097737454
104	0x3d09f09c	0.03367673
105	0xbe635087	-0.22198687
106	0x3d9cd257	0.07657307
107	0x3e56df79	0.20983686
108	0x3d99c876	0.07508938
109	0xbe6bb003	-0.23016362
110	0x3e6bd0fb	0.23028938
111	0x3d44c450	0.04803878
112	0xbd67c9ef	-0.056589063
113	0x3d57a0d9	0.05264363
114	0x3e4c16c4	0.1993056
115	0x3e1ebef5	0.15502532
116	0x3e87df54	0.26537573
117	0x3e4cf949	0.2001697
118	0x3c9967c7	0.018726243
119	0xbc8f46be	-0.017489787
120	0xbdb4d848	-0.08830315
121	0xbdf4527d	-0.11929796
122	0xbddf233f	-0.108953945
123	0xbd800bcd	-0.06252251
124	0x3da84f93	0.082183026
125	0xbd39eb5e	-0.04539048
126	0x3d00b82d	0.031425644
127	0x3c89749e	0.01677924
128	0xbd51ecd0	-0.051251233
129	0x3cc8c67b	0.024508705
130	0xbdc474fb	-0.09592625
131	0x3de2c0df	0.110719435
132	0xbd89ec06	-0.06734471
133	0x3c74c0c6	0.014938539
134	0xbd205163	-0.039140116
135	0x3e113c27	0.14183103
136	0xbdbc9f92	-0.09210123
137	0x3e0a3646	0.13497266
138	0xbd8e6110	-0.06952107
139	0xbe347be9	-0.17625393
140	0x3d77aa4b	0.06046514
141	0x3e23df02	0.1600304
142	0x3e177759	0.14791621
143	0x3dc723f3	0.09723654
144	0xbd823568	-0.06357843
145	0xbdd6b798	-0.104842365
146	0xbdee05d3	-0.11622205
147	0x3e603e34	0.21898729
148	0xbddd29d6	-0.10798995
149	0x3d42a556	0.047520958
150	0xbe1aca73	-0.15116291
151	0xbe4f0d0b	-0.20219819
152	0xbe62e88c	-0.22159022
153	0xbe516393	-0.20448141
154	0xbe4f1b3f	-0.20225237
155	0x3d52d8ae	0.051476173
156	0x3e3e4f84	0.1858502
157	0xbdd4cdee	-0.103908405
158	0x3bdfabee	0.0068259155
159	0x3e7a5468	0.24446261
160	0xbd95d500	-0.07316017
161	0xbda91707	-0.08256345
162	0x3ded6594	0.1159164
163	0x3d82d3d9	0.06388063
164	0x3e35d795	0.1775802
165	0x3df150b7	0.11782973
166	0x3e243798	0.16036832
167	0x3e319cd8	0.17344987
168	0x3cdb5d83	0.026777988
169	0x3cb4748a	0.022028226
170	0x3c9d514b	0.019203803
171	0x3d9ab0ba	0.07553239
172	0xbd1ae9bb	-0.03782056
173	0xbe1deccd	-0.15422364
174	0x3d395265	0.045244593
175	0xbd026054	-0.031830147
176	0x3d0e5b54	0.034755066
177	0xbd866440	-0.0656209
178	0x3c879d11	0.016554387
179	0xbc552d29	-0.013011255
180	0xbe9f89b2	-0.3115974
181	0xbbb519bc	-0.0055267494
182	0xbda690a8	-0.0813306
183	0xbc37dbd5	-0.011221846
184	0xbd09fa03	-0.033685695
185	0xbd90e93c	-0.07075736
186	0xbbeabc8e	-0.0071635908
187	0xbdf7e151	-0.121035226
188	0xbd4bb1bc	-0.049730048
189	0x3d18462f	0.037176307
190	0xbd0adef7	-0.033904042
191	0xbc528efb	-0.012851472
192	0xbd95d481	-0.073159225
193	0xbe442e13	-0.19158201
194	0xbe02c150	-0.12769055
195	0xbddbdfa9	-0.10736019
196	0xbdf1a3d8	-0.11798829
197	0x3e068025	0.13134821
198	0xbdecd96f	-0.1156491
199	0xbc9aaa06	-0.018879902
200	0xbe93a3a9	-0.288358
201	0x3cb431a0	0.02199632
202	0x3d0cfb61	0.03441942
203	0xbe3d2499	-0.18470992
204	0xbe80c3a3	-0.2514926
205	0x3d3f3c44	0.046688333
206	0xbe943bf8	-0.28952003
207	0xbe5ffe56	-0.21874365
208	0xbe1b5a0f	-0.15171073
209	0xbd1db799	-0.03850517
210	0x3cd73713	0.026271379
211	0xbe8c2457	-0.27371475
212	0x3d864826	0.0655673
213	0x3d718751	0.05896694
214	0xbe0be6b2	-0.13662222
215	0xbe3b31ec	-0.18280762
216	0xbe88946f	-0.26675746
217	0xbe15f092	-0.14642552
218	0xbcae7721	-0.02129704
219	0x3d8fe749	0.07026536
220	0xbe921cf3	-0.28537712
221	0x3cae546f	0.021280495
222	0xbdad6b16	-0.08467691
223	0xbdfd9f5a	-0.123839095
224	0xbe08ea73	-0.13370685
225	0xbdd1f5de	-0.102519736
226	0xbe43b688	-0.19112599
227	0xbe64ad19	-0.22331657
228	0xbdc6f5de	-0.09714864
229	0xbd831dc9	-0.064021654
230	0xbe2d7c22	-0.16941884
231	0xbe132040	-0.14367771
232	0x3ca0363a	0.019557107
233	0xbe86ef75	-0.26354566
234	0xbe2967fd	-0.16543575
235	0xbe13c2eb	-0.14429824
236	0xbcd57e3a	-0.026061166
237	0x3d52130d	0.0512877
238	0xbe364508	-0.17799771
239	0xbe571246	-0.21003065
240	0x3e4ceb51	0.20011641
241	0xbcc16032	-0.02360544
242	0x3e5e7efc	0.21728128
243	0x3e007741	0.12545492
244	0x3da81536	0.08207171
245	0x3e331e9b	0.17492144
246	0xbd23ecd6	-0.040020786
247	0xbdc25ccb	-0.09490355
248	0xbda07664	-0.07835081
249	0xbd200d54	-0.03907521
250	0x3df93ec5	0.121701755
251	0x3d297cbc	0.04137872
252	0xbc8279a3	-0.015927142
253	0x3e2aed34	0.16692048
254	0xbe3135cd	-0.1730568
255	0x3c94bc65	0.01815624

network.0.bias f4 [16]
0	0xbe3aa3ad	-0.182265
1	0x3e2f1107	0.17096339
2	0xbd871634	-0.06596032
3	0xbc9cdea4	-0.019149132
4	0xbe780a53	-0.24222688
5	0x3d35eab8	0.0444133
6	0x3e03c26e	0.12867138
7	0x3dd621cf	0.10455667
8	0x3d7cf754	0.061759308
9	0xbc89215e	-0.016739544
10	0x3e3c99e4	0.1841808
11	0xbd71d2b4	-0.059038833
12	0x3e43327d	0.19062229
13	0x3d62b58f	0.05534893
14	0x3bfa9f98	0.0076484196
15	0x3aeb1372	0.0017934872

network.2.weight f4 [16, 16]
0	0xbe47caa6	-0.19510898
1	0x3e5ab4c5	0.2135802
2	0x3e83792b	0.2567838
3	0x3d74c880	0.059761524
4	0x3e2f4543	0.17116265
5	0xbe3d03d3	-0.1845849
6	0xbe315067	-0.17315827
7	0xbe16b048	-0.14715683
8	0x3e89442d	0.26809826
9	0x3e6b9578	0.23006237
10	0x3e8d008a	0.27539474
11	0xbe4f3b0d	-0.2023737
12	0x3e0528e2	0.13003877
13	0x3eb708b1	0.3574882
14	0x3e04d495	0.12971719
15	0xbeb04eda	-0.3443516
16	0xbdd5de6f	-0.104428165
17	0x3e4c9a01	0.19980623
18	0xbe2c5376	-0.16828713
19	0x3d7a807e	0.061157696
20	0x3e1f27af	0.15542482
21	0x3e620c23	0.22074942
22	0xbe30f4cb	-0.17280881
23	0xbdac18f6	-0.084031984
24	0xbb8fd06c	-0.0043888595
25	0x3db284b3	0.087167166
26	0x3e106b2d	0.14103384
27	0x3e1e4811	0.15457179
28	0xbe0808fd	-0.13284679
29	0xbe657447	-0.22407638
30	0x3dac6b20	0.0841887
31	0xbda8461a	-0.08216496
32	0x3df2f78c	0.11863622
33	0x3e218eda	0.1577715
34	0x3e77e7d1	0.24209525
35	0xbdd2c784	-0.10291961
36	0xbd706040	-0.05868554
37	0xbddc1276	-0.10745709
38	0x3da53d03	0.08068278
39	0xbccbd435	-0.024881462
40	0x3e3e7d17	0.18602405
41	0xbe058807	-0.13040172
42	0x3e5f5252	0.21808746
43	0x3e8e0595	0.27738634
44	0xbd7f0117	-0.0622569
45	0xbcf50222	-0.029908244
46	0x3ea65806	0.32489032
47	0xbcf15ec3	-0.029464131
48	0xbdf0e8ed	-0.11763177
49	0x3dd07c52	0.10179962
50	0x3e8195ff	0.2530975
51	0xbe827906	-0.2548296
52	0x3df64cce	0.12026368
53	0xbddc1b7c	-0.1074743
54	0x3e8b0913	0.2715536
55	0xbc3aa9ce	-0.011393024
56	0xbdd53ba6	-0.10411768
57	0x3dc6b598	0.09702605
58	0xbe309b94	-0.17246848
59	0x3da3f1af	0.08005082
60	0x3ebe3768	0.37151647
61	0xbe10181f	-0.14071701
62	0xbe0eee38	-0.1395806
63	0x3d9dd8b0	0.077073455
64	0xbe63f875	-0.22262748
65	0x3e114352	0.14185837
66	0xbd3bfb9c	-0.04589425
67	0xbd32d34f	-0.04365855
68	0xbe0fb099	-0.1403221
69	0x3e21f7a9	0.15817131
70	0x3e9ccb5b	0.30623898
71	0x3c190b31	0.009341047
72	0xbe168248	-0.14698136
73	0x3cff2685	0.031146297
74	0xbe9bff73	-0.3046833
75	0x3e545b42	0.20737937
76	0x3e369d98	0.17833555
77	0x3df06241	0.117374904
78	0x3cd97ba5	0.026548216
79	0x3e95efbf	0.29284474
80	0xbe0b18cc	-0.13583678
81	0xbde19f96	-0.11016767
82	0x3debc708	0.115125716
83	0x3e19cb0e	0.15018865
84	0xbd919731	-0.071089156
85	0x3e1fea3b	0.15616696
86	0x3e16386e	0.14669964
87	0x3da8c65b	0.08240958
88	0x3d8a8ca9	0.0676511
89	0x3e8307d1	0.255919
90	0x3e3b5e52	0.18297699
91	0xbcc30acc	-0.02380886
92	0xbd754cf7	-0.059887853
93	0x3e92c280	0.28664017
94	0xbc0d75ed	-0.008634073
95	0xbdd0e277	-0.10199445
96	0xbe65c5e0	-0.22438765
97	0xbb50a58b	-0.0031836953
98	0x3e1f42cb	0.15552823
99	0x3d3db4fd	0.046315182
100	0xbd1ea1e6	-0.038728617
101	0x3e0d3274	0.13788778
102	0xbe083377	-0.13300882
103	0xbe80c616	-0.25151128
104	0xbe21da39	-0.15805902
105	0x3d992138	0.07477039
106	0xbd6f5445	-0.058429975
107	0xbe52d5a6	-0.20589313
108	0x3e01470c	0.12624758
109	0x3d0dc9b8	0.034616202
110	0x3e480651	0.1953366
111	0xbe196a0b	-0.14981858
112	0x3ca6b7d3	0.020351326
113	0x3e294ed6	0.1653398
114	0x3dddc690	0.108288884
115	0x3dfa97ad	0.12235961
116	0x3e0b0ec1	0.13579847
117	0x3e0481d8	0.12940156
118	0x3da815f9	0.08207316
119	0x3d4ada33	0.049524497
120	0xbe051b4e	-0.12998697
121	0x3e8a1674	0.26970255
122	0x3cdfe279	0.02732967
123	0xbd02253c	-0.03177379
124	0x3cc21774	0.023692824
125	0xbad9e14c	-0.001662293
126	0xbe08b9ee	-0.13352177
127	0x3e3e1624	0.18563133
128	0xbd0b6312	-0.034030028
129	0xbe2b6f3b	-0.1674165
130	0x3e4bbb34	0.19895631
131	0xbe6ee692	-0.23330143
132	0x3e652fc3	0.22381501
133	0xbe6d5c2e	-0.23179695
134	0xba9ee144	-0.0012121578
135	0x3e0daad5	0.13834698
136	0xbc06f140	-0.008236229
137	0xbe2ffa7e	-0.17185399
138	0xbe329d67	-0.17442857
139	0x3d80c2eb	0.06287178
140	0xbe21e5f5	-0.15810378
141	0x3e1f2384	0.15540892
142	0x3e5e8f15	0.21734269
143	0xbe357479	-0.17720212
144	0x3d7f1ee3	0.062285315
145	0x3e9aec87	0.3025858
146	0xbd55e51b	-0.052220445
147	0xbc593610	-0.013257518
148	0xbe182758	-0.14858758
149	0x3dd7cd5d	0.10537217
150	0x3eb04fe0	0.3443594
151	0x3da8e48f	0.08246719
152	0xbe1f2e7f	-0.1554508
153	0xbdbb37ac	-0.09141478
154	0x3e34c7b3	0.17654304
155	0x3d05885a	0.032600738
156	0x3e095112	0.13409832
157	0xbe9c9702	-0.3058396
158	0xbe5e90b9	-0.21734895
159	0x3e91ac80	0.2845192
160	0xbe23c602	-0.15993503
161	0x3e1eef6f	0.15521024
162	0x3d1c2a82	0.038126476
163	0xbd6fee20	-0.058576703
164	0xbe01f5cc	-0.1269142
165	0x3db3e4ad	0.08783851
166	0x3e6db399	0.23213042
167	0x3e82d07e	0.25549692
168	0xbcb6b619	-0.022303628
169	0x3df3181d	0.118698336
170	0xbe1e4007	-0.15454112
171	0x3e9998c9	0.29999378
172	0x3e929e7a	0.28636533
173	0xbeac244c	-0.33621442
174	0x3ca585a9	0.020205336
175	0x3e1b8b5d	0.15189882
176	0x3e1b94e4	0.15193516
177	0xbe343464	-0.1759811
178	0x3d2047e1	0.03913105
179	0x3a8b0621	0.0010606685
180	0xbe1eeff0	-0.15521216
181	0x3cdc289c	0.026874833
182	0x3de12504	0.10993388
183	0x3e4a77f6	0.19772324
184	0xbe3d87db	-0.18508856
185	0xba178c2a	-0.0005781079
186	0xbd4d7841	-0.05016351
187	0x3eb20625	0.34770313
188	0x3e87913b	0.2647799
189	0x3dd5df29	0.10442955
190	0xbe2da158	-0.16956079
191	0x3e791942	0.24326041
192	0xbe16426a	-0.14673772
193	0x3c619fc1	0.013770998
194	0x3e134c7e	0.14384648
195	0x3e940cae	0.28915924
196	0xbd11f4d6	-0.035633884
197	0xbe6bc88f	-0.23025726
198	0x3d91169d	0.07084391
199	0x3d097d2c	0.03356664
200	0x3dc4353f	0.095804684
201	0xbd8bfde9	-0.06835539
202	0x3d1e011d	0.03857528
203	0x3e192f62	0.14959481
204	0xbeadb127	-0.3392422
205	0x3e61210e	0.21985266
206	0x3dc7a044	0.09747365
207	0xbe85fc13	-0.2616888
208	0xbd0420ca	-0.032257833
209	0x3e27dd1e	0.16392943
210	0x3e8ec638	0.27885604
211	0x3e8a8fbf	0.27062795
212	0xbe55ee6a	-0.20891729
213	0xbddfe4f3	-0.109323405
214	0xbbeeeebd	-0.0072916434
215	0xbc9d2517	-0.019182725
216	0x3eacf671	0.3378177
217	0x3e952e36	0.2913682
218	0x3e227b62	0.1586738
219	0x3de582ac	0.11206564
220	0xbe6045c9	-0.21901621
221	0x3eb2b48f	0.3490338
222	0x3eab8f02	0.33507544
223	0xbe931c41	-0.28732494
224	0x3ea1a2f3	0.31569633
225	0x3e85aaec	0.26106966
226	0x3e8be8d5	0.27326074
227	0xbd8b7516	-0.06809442
228	0x3e0604f3	0.13087825
229	0x3df03f55	0.117308296
230	0x3e92a0ba	0.2863825
231	0x3eb0653d	0.3445224
232	0xbcd3b4be	-0.02584302
233	0x3eb2bae1	0.34908202
234	0xbcfd1a44	-0.030896313
235	0x3eae724f	0.34071586
236	0xbbd2e663	-0.0064361556
237	0x3deaf6bb	0.11472841
238	0x3e98c230	0.29835653
239	0xbd0dd92f	-0.03463095
240	0x3da4d4ec	0.08048424
241	0xbdf4b255	-0.11948077
242	0x3d3d6dcb	0.046247285
243	0x3dc3667c	0.09541032
244	0xbdf73252	-0.12070145
245	0xbd44c6d6	-0.048041187
246	0xbdb86842	-0.090042606
247	0x3e8156f6	0.25261658
248	0x3eb4a8b7	0.3528497
249	0x3e50b581	0.20381738
250	0xbd858cff	-0.065210335
251	0xbd5b8efd	-0.05360316
252	0xbe7d1fcf	-0.24719165
253	0x3cd698cd	0.026195908
254	0x3e963154	0.2933451
255	0x3e1f07cb	0.15530317

network.2.bias f4 [16]
0	0x3e4f47f2	0.20242289
1	0xbe2bdcb5	-0.16783412
2	0x3ea4f25b	0.32216153
3	0x3e579a39	0.21054925
4	0x3e9a87fc	0.30181873
5	0xbe04b4f7	-0.12959658
6	0x3defc1b6	0.11706869
7	0x3db8735a	0.090063766
8	0xbe4a90d6	-0.19781813
9	0x3e286378	0.16444194
10	0x3e18d781	0.14925958
11	0x3e3e2139	0.18567361
12	0x3e87d946	0.26532954
13	0x3e1c4c82	0.1526356
14	0x3df45023	0.11929347
15	0x3e6fc4d4	0.23414928

network.4.weight f4 [16, 16]
0	0xbe80e2d1	-0.25173047
1	0xbe2ade11	-0.16686274
2	0xbe82c15f	-0.25538155
3	0x3ca45da3	0.02006418
4	0x3cb364f5	0.021898726
5	0xbd310181	-0.043214325
6	0xbe20a4ea	-0.1568791
7	0xbd451fb4	-0.048125938
8	0x3e029ef1	0.12755944
9	0x3d99cc7d	0.07509706
10	0x3bef0818	0.007294666
11	0x3d33e3d6	0.043918453
12	0x3e173146	0.1476489
13	0x3d18bb57	0.037288036
14	0xbe8e9a8f	-0.27852294
15	0xbd1194c5	-0.03554227
16	0x3e86f657	0.26359817
17	0x3e276a43	0.1634913
18	0x3e63df8f	0.2225325
19	0xbe830f2d	-0.25597516
20	0xbdc073c4	-0.093970805
21	0x3ea6d71f	0.32586
22	0x3e4adfc1	0.19811918
23	0xbd8a2179	-0.06744666
24	0x3dc5dcbe	0.09661244
25	0xbd761035	-0.06007405
26	0xbe215a56	-0.15757117
27	0x3d6ff236	0.0585806
28	0x3ea7e3c0	0.32790947
29	0x3e8f6a95	0.28011003
30	0xbe04bbb4	-0.12962228
31	0x3d44785c	0.047966346
32	0xbe6e1a45	-0.23252209
33	0x3e690ee2	0.22759584
34	0xbe1f1087	-0.15533648
35	0x3d460453	0.048343968
36	0x3dbb0453	0.09131684
37	0x3ba13a18	0.0049202554
38	0x3da79acf	0.08183824
39	0xbde7c1d7	-0.11316269
40	0xbe29aa56	-0.16568884
41	0xbd2ee76d	-0.042701174
42	0xbe20560d	-0.15657826
43	0x3d455b3f	0.048182722
44	0xbe11a9e3	-0.14224963
45	0xbdd64574	-0.10462466
46	0x3d19cdee	0.037549905
47	0xbe87b0d7	-0.26502106
48	0xbdc0bf7a	-0.09411521
49	0xbe15ec33	-0.14640884
50	0xbd23440e	-0.039859824
51	0x3e96f8e9	0.29486778
52	0x3d76f1d9	0.060289238
53	0xbe3b7ae2	-0.18308595
54	0x3e8c1394	0.27358687
55	0x3dbd7f6c	0.092528194
56	0xbe862bb3	-0.26205215
57	0x3ec7a428	0.3899243
58	0x3e93ec52	0.28891236
59	0x3e362bea	0.1779019
60	0xbd39353d	-0.045216788
61	0xbddc6bc4	-0.10762742
62	0x3e42153d	0.18953414
63	0xbd2d1672	-0.042257734
64	0x3d8cd37c	0.06876275
65	0xbdd0217c	-0.10162637
66	0xbc3bcf20	-0.011462957
67	0xbe7e85be	-0.24855706
68	0xbdd95360	-0.10611606
69	0xbd4240a0	-0.047424912
70	0x3e5ee540	0.2176714
71	0xbe1e6344	-0.15467554
72	0x3e2d3a0a	0.16916671
73	0xbe3c64d4	-0.18397838
74	0xbe0f9eec	-0.14025468
75	0x3e5306f2	0.20608118
76	0x3db37860	0.08763194
77	0xbe4825bc	-0.19545645
78	0xbdfa5d74	-0.12224856
79	0x3df2e138	0.11859363
80	0x3ea437ab	0.3207372
81	0x3e0f1826	0.13974056
82	0x3ec6ed76	0.38853043
83	0x3d437fe1	0.047729377
84	0xbb370333	-0.002792549
85	0x3e8e8fcb	0.2784408
86	0x3e6d1e8b	0.23156182
87	0x3d4345f6	0.04767414
88	0xbc407c0a	-0.011748323
89	0xbe433834	-0.19064409
90	0xbdfc8a8b	-0.123311125
91	0xbd0a271a	-0.033728696
92	0xbd9d02c2	-0.07666542
93	0x3e836c99	0.2566879
94	0x3ccf9acc	0.025342368
95	0x3e15e878	0.14639461
96	0xbbe164d5	-0.006878475
97	0xbdb1b7d5	-0.08677641
98	0xbe11d0b9	-0.14239778
99	0x3e377b00	0.17918015
100	0xbc06510f	-0.008198037
101	0xbdc902b8	-0.09814972
102	0xbd0d6061	-0.034515742
103	0x3e4c7f43	0.19970421
104	0x3e1de6d8	0.15420091
105	0xbe2e6ef0	-0.17034507
106	0xbdf32f7a	-0.1187429
107	0xbde597f8	-0.11210626
108	0x3a0f0fbe	0.0005457363
109	0x3dbd22be	0.09235142
110	0xbe5e9ed9	-0.21740283
111	0xbe14631b	-0.1449093
112	0x3d38ef61	0.045150165
113	0x3e9b3302	0.30312353
114	0x3e154eef	0.14580892
115	0x3ddfd8ce	0.10930024
116	0x3ea53613	0.32267818
117	0xbe447cb7	-0.191882
118	0xbe32cd24	-0.17461067
119	0x3e06bb38	0.13157356
120	0x3de827c1	0.113357075
121	0x3e1f24be	0.1554136
122	0x3de5a67d	0.11213396
123	0x3e5e1d38	0.21690834
124	0xbe4194a2	-0.18904355
125	0xbe604fc3	-0.21905427
126	0x3e13b3e6	0.14424095
127	0x3b8dbda5	0.004325586
128	0xbe82157e	-0.25407022
129	0x3d9cf6d8	0.07664269
130	0x3dfbd2ae	0.12296043
131	0x3dd95955	0.10612742
132	0x3e8b03d4	0.27151358
133	0x3dc5d3e4	0.096595556
134	0x3e06a5e6	0.13149223
135	0xbbd37392	-0.006452986
136	0x3d3e9402	0.04652787
137	0x3d919105	0.071077384
138	0xbd6cb629	-0.05779091
139	0x3eb1e666	0.34746093
140	0xbe2a3bcc	-0.16624373
141	0xbdbaa5a1	-0.091136225
142	0x3e287163	0.16449504
143	0x3dab6a35	0.08369867
144	0xbdea6185	-0.114443816
145	0x3e4e8aa3	0.20170073
146	0xbd2a0760	-0.04151094
147	0xbe093c08	-0.13401806
148	0x3e77fdb5	0.24217875
149	0x3e844685	0.25835052
150	0x3e8bb106	0.27283496
151	0xbe053bf3	-0.1301115
152	0xbe082fc8	-0.13299477
153	0xbe2d7c4a	-0.16941944
154	0xbe3dc0eb	-0.18530624
155	0xbe5601d7	-0.2089914
156	0xbbea3f7a	-0.0071486803
157	0xbdd0a89f	-0.10188412
158	0xbe29f026	-0.16595516
159	0xbd74e18f	-0.059785422
160	0xbcc98740	-0.024600625
161	0x3e614d2c	0.22002095
162	0xbc8811d0	-0.016610056
163	0x3e003b9a	0.12522736
164	0x3c132c60	0.008982748
165	0xbe659e8a	-0.22423759
166	0x3e0612da	0.13093129
167	0xbdc59c90	-0.096490026
168	0xbe05fada	-0.13083974
169	0xbe15e03c	-0.1463632
170	0xbe578452	-0.2104657
171	0xbd8a7e60	-0.06762385
172	0xbe6aca56	-0.22928748
173	0x3cbeb4b0	0.023279518
174	0x3d0913b0	0.03346604
175	0xbe2e7a04	-0.17038733
176	0xbe318489	-0.17335714
177	0x3e803e7f	0.2504768
178	0x3dab0932	0.08351363
179	0x3da9434f	0.08264791
180	0x3e7dd1b4	0.24787027
181	0xbe13dae3	-0.14438967
182	0xbd950c4b	-0.07277735
183	0x3d262844	0.040565744
184	0xbe000b5d	-0.12504335
185	0x3e3f620b	0.18689744
186	0x3e37131f	0.17878388
187	0xbd734e34	-0.059400752
188	0xbea56767	-0.32305452
189	0xbbe5b216	-0.007009755
190	0x3e64f0f6	0.22357544
191	0xbe058fc9	-0.13043131
192	0x3e58a115	0.21155198
193	0x3e003960	0.12521887
194	0x3c9fff4d	0.019530917
195	0xbea0cf35	-0.31408086
196	0xbd5dcce1	-0.054150466
197	0xbbefb134	-0.0073148254
198	0xbe03aab3	-0.12858085
199	0x3e13689d	0.14395376
200	0xbe2b760b	-0.16744249
201	0xbda3fd6e	-0.08007322
202	0xbe2c0304	-0.16798025
203	0xba81cb82	-0.0009902569
204	0x3e7f6b5d	0.249433
205	0x3eacae23	0.33726606
206	0x3ea52437	0.32254192
207	0x3e2ae571	0.16689087
208	0x3eae8d5f	0.34092233
209	0xbe418764	-0.18899304
210	0x3ea89efd	0.32933798
211	0xbeb0bb7b	-0.34518036
212	0x3e0cc934	0.13748628
213	0x3dff17c9	0.124557085
214	0x3dd70908	0.104997694
215	0x3e405786	0.18783388
216	0x3e504ddb	0.203422
217	0xbdb7ea7f	-0.089802735
218	0xbe819bea	-0.25314265
219	0x3d602c8f	0.054729994
220	0xbc401b36	-0.011725238
221	0x3def3586	0.11680131
222	0x3de382cb	0.11108931
223	0xbd3f8f7c	-0.046767697
224	0xbd3eb5ba	-0.046560027
225	0x3e62791a	0.22116509
226	0x3dd71a41	0.105030544
227	0x3eb8f639	0.36125353
228	0xbde00c09	-0.109397955
229	0xbe6cff63	-0.23144297
230	0xbd0c04c9	-0.03418425
231	0x3e2d904c	0.16949576
232	0x3d0163ff	0.031589504
233	0x3dd1e486	0.102486655
234	0x3ebf5d0a	0.3737567
235	0x3e85e46d	0.26150838
236	0xbeadb52f	-0.33927295
237	0xbc5d1b34	-0.013495255
238	0xbb992e55	-0.0046747127
239	0x3dca266a	0.09870608
240	0x3e9f7382	0.31142813
241	0xbe591183	-0.21198086
242	0x3e6fb079	0.23407163
243	0xbe8a7464	-0.27041924
244	0xbcebf1a1	-0.028801741
245	0x3df87e72	0.121334925
246	0x3d5aa028	0.053375393
247	0xbbb43cc4	-0.005500408
248	0xbd3a6584	-0.04550697
249	0xbeb5a6cf	-0.35478827
250	0xbdaed49b	-0.08536645
251	0xbd0058b6	-0.0313346
252	0x3e9f924e	0.3116631
253	0x3ea4131c	0.3204583
254	0x3ea4972c	0.32146585
255	0x3eafc274	0.34328043

network.4.bias f4 [16]
0	0xbd8e8aa9	-0.06960041
1	0x3e808330	0.25100088
2	0xbcfef298	-0.031121537
3	0x3dada055	0.084778465
4	0xbd8d604c	-0.06903133
5	0xbd6962ea	-0.056979097
6	0xbdbab534	-0.09116593
7	0x3db2499b	0.087054454
8	0x3e97d7f8	0.2965696
9	0x3d4158d7	0.047203865
10	0xbe2701e2	-0.16309312
11	0x3e7486e8	0.23879588
12	0x3d6ec236	0.058290683
13	0x3d0215d5	0.031759102
14	0x3e5252df	0.20539425
15	0x3dc86777	0.09785359

network.6.weight f4 [2, 16]
0	0xbd1437f0	-0.03618616
1	0xbdd38fe9	-0.10330183
2	0xbc960f56	-0.01831786
3	0x3ea0d8ee	0.31415504
4	0xbda9f618	-0.08298892
5	0xbe92cb6d	-0.28670827
6	0x3d873af9	0.06603045
7	0x3eb8be9e	0.3608293
8	0x3e908b75	0.28231397
9	0x3d7bbcf3	0.061459493
10	0x3e6e1c86	0.23253068
11	0x3eb46043	0.35229692
12	0xbe83ed04	-0.25766766
13	0xbe3b6dfc	-0.18303674
14	0x3ea584ed	0.32327977
15	0xbea18835	-0.3154923
16	0xbc523e1c	-0.012832191
17	0x3e2d5e5f	0.16930531
18	0x3e3f7e3b	0.18700497
19	0xbeb9ace3	-0.36264715
20	0xbafe3400	-0.0019394159
21	0x3dac181d	0.08403037
22	0xbda6d369	-0.08145792
23	0xbeabe6b5	-0.33574453
24	0xbea25528	-0.31705594
25	0xbe0841f9	-0.13306417
26	0x3d68ce58	0.05683741
27	0xbe5d2791	-0.21597125
28	0x3e3de7b7	0.18545423
29	0x3d266363	0.040622126
30	0xbe88d2de	-0.2672338
31	0x3eac1b12	0.33614403

network.6.bias f4 [2]
0	0x3e785b1f	0.2425351
1	0x3c59c468	0.013291456
